#loc = loc("/root/code/openai/lib/deuterium/deuterium/linalg/jacobi.py":217:0)
#loc1 = loc(unknown)
#loc10 = loc("/root/code/openai/lib/deuterium/deuterium/linalg/jacobi.py":220:37)
#loc13 = loc("/root/code/openai/lib/deuterium/deuterium/linalg/jacobi.py":133:25)
#loc14 = loc("/root/code/openai/lib/deuterium/deuterium/linalg/jacobi.py":176:43)
#loc20 = loc("/root/code/openai/lib/deuterium/deuterium/linalg/jacobi.py":141:18)
#loc24 = loc("/root/code/triton/python/triton/language/standard.py":191:26)
#loc25 = loc("/root/code/openai/lib/deuterium/deuterium/linalg/jacobi.py":179:27)
#loc89 = loc(callsite(#loc1 at #loc20))
#loc93 = loc(callsite(#loc1 at #loc24))
#loc147 = loc(callsite(#loc89 at #loc13))
#loc150 = loc(callsite(#loc93 at #loc25))
#loc201 = loc(callsite(#loc147 at #loc14))
#loc204 = loc(callsite(#loc150 at #loc10))
#loc237 = loc(callsite(#loc201 at #loc10))
module {
  tt.func public @ortho_diag_test_kernel(%arg0: !tt.ptr<f32> {tt.divisibility = 16 : i32} loc("/root/code/openai/lib/deuterium/deuterium/linalg/jacobi.py":217:0), %arg1: !tt.ptr<f32> {tt.divisibility = 16 : i32} loc("/root/code/openai/lib/deuterium/deuterium/linalg/jacobi.py":217:0), %arg2: !tt.ptr<f32> {tt.divisibility = 16 : i32} loc("/root/code/openai/lib/deuterium/deuterium/linalg/jacobi.py":217:0), %arg3: i32 loc("/root/code/openai/lib/deuterium/deuterium/linalg/jacobi.py":217:0)) attributes {noinline = false} {
    %cst = arith.constant dense<0> : tensor<64xi32> loc(#loc1)
    %cst_0 = arith.constant dense<-7.52316385E-37> : tensor<64xf32> loc(#loc1)
    %c0_i32 = arith.constant 0 : i32 loc(#loc1)
    %c1_i32 = arith.constant 1 : i32 loc(#loc1)
    %cst_1 = arith.constant dense<5.000000e-01> : tensor<1x64xf32> loc(#loc1)
    %cst_2 = arith.constant dense<7.52316385E-37> : tensor<64xf32> loc(#loc1)
    %cst_3 = arith.constant dense<-1.000000e+00> : tensor<1x64xf32> loc(#loc1)
    %cst_4 = arith.constant dense<1.000000e+00> : tensor<1x64xf32> loc(#loc1)
    %cst_5 = arith.constant dense<7.52316385E-37> : tensor<1x64xf32> loc(#loc1)
    %cst_6 = arith.constant dense<0.000000e+00> : tensor<1x64xf32> loc(#loc1)
    %cst_7 = arith.constant dense<64> : tensor<64x1xi32> loc(#loc1)
    %0 = tt.make_range {end = 64 : i32, start = 0 : i32} : tensor<64xi32> loc(#loc2)
    %1 = tt.expand_dims %0 {axis = 1 : i32} : tensor<64xi32> -> tensor<64x1xi32> loc(#loc3)
    %2 = arith.muli %1, %cst_7 : tensor<64x1xi32> loc(#loc4)
    %3 = tt.splat %arg0 : !tt.ptr<f32> -> tensor<64x1x!tt.ptr<f32>> loc(#loc5)
    %4 = tt.addptr %3, %2 : tensor<64x1x!tt.ptr<f32>>, tensor<64x1xi32> loc(#loc5)
    %5 = tt.expand_dims %0 {axis = 0 : i32} : tensor<64xi32> -> tensor<1x64xi32> loc(#loc6)
    %6 = tt.broadcast %4 : tensor<64x1x!tt.ptr<f32>> -> tensor<64x64x!tt.ptr<f32>> loc(#loc7)
    %7 = tt.broadcast %5 : tensor<1x64xi32> -> tensor<64x64xi32> loc(#loc7)
    %8 = tt.addptr %6, %7 : tensor<64x64x!tt.ptr<f32>>, tensor<64x64xi32> loc(#loc7)
    %9 = tt.load %8 : tensor<64x64x!tt.ptr<f32>> loc(#loc8)
    %10 = tt.broadcast %1 : tensor<64x1xi32> -> tensor<64x64xi32> loc(#loc81)
    %11 = arith.cmpi eq, %10, %7 : tensor<64x64xi32> loc(#loc81)
    %12 = arith.uitofp %11 : tensor<64x64xi1> to tensor<64x64xf32> loc(#loc82)
    %13 = arith.xori %10, %7 : tensor<64x64xi32> loc(#loc198)
    %14 = arith.cmpi eq, %0, %cst : tensor<64xi32> loc(#loc84)
    %15:2 = scf.for %arg4 = %c0_i32 to %arg3 step %c1_i32 iter_args(%arg5 = %9, %arg6 = %12) -> (tensor<64x64xf32>, tensor<64x64xf32>)  : i32 {
      %24 = arith.mulf %arg5, %arg5 : tensor<64x64xf32> loc(#loc144)
      %25 = tt.gather %24[%13] {axis = 1 : i32} : (tensor<64x64xf32>, tensor<64x64xi32>) -> tensor<64x64xf32> loc(#loc199)
      %26 = "tt.reduce"(%25) <{axis = 0 : i32}> ({
      ^bb0(%arg7: f32 loc(callsite(#loc201 at #loc10)), %arg8: f32 loc(callsite(#loc201 at #loc10))):
        %77 = arith.addf %arg7, %arg8 : f32 loc(#loc246)
        tt.reduce.return %77 : f32 loc(#loc236)
      }) : (tensor<64x64xf32>) -> tensor<64xf32> loc(#loc236)
      %27 = arith.select %14, %cst_0, %26 : tensor<64xi1>, tensor<64xf32> loc(#loc91)
      %28:2 = "tt.reduce"(%27, %0) <{axis = 0 : i32}> ({
      ^bb0(%arg7: f32 loc(callsite(#loc150 at #loc10)), %arg8: i32 loc(callsite(#loc150 at #loc10)), %arg9: f32 loc(callsite(#loc150 at #loc10)), %arg10: i32 loc(callsite(#loc150 at #loc10))):
        %77 = arith.cmpf oeq, %arg7, %arg9 : f32 loc(#loc247)
        %78 = arith.cmpi slt, %arg8, %arg10 : i32 loc(#loc248)
        %79 = arith.andi %77, %78 : i1 loc(#loc249)
        %80 = arith.cmpf ogt, %arg7, %arg9 : f32 loc(#loc250)
        %81 = arith.ori %80, %79 : i1 loc(#loc251)
        %82 = arith.select %81, %arg7, %arg9 : f32 loc(#loc252)
        %83 = arith.select %81, %arg8, %arg10 : i32 loc(#loc253)
        tt.reduce.return %82, %83 : f32, i32 loc(#loc203)
      }) : (tensor<64xf32>, tensor<64xi32>) -> (f32, i32) loc(#loc203)
      %29 = tt.gather %arg5[%1] {axis = 1 : i32} : (tensor<64x64xf32>, tensor<64x1xi32>) -> tensor<64x1xf32> loc(#loc158)
      %30 = tt.reshape %29 : tensor<64x1xf32> -> tensor<1x64xf32> loc(#loc159)
      %31 = tt.splat %28#1 : i32 -> tensor<64x1xi32> loc(#loc160)
      %32 = arith.xori %1, %31 : tensor<64x1xi32> loc(#loc160)
      %33 = tt.gather %arg5[%32] {axis = 1 : i32} : (tensor<64x64xf32>, tensor<64x1xi32>) -> tensor<64x1xf32> loc(#loc161)
      %34 = tt.reshape %33 : tensor<64x1xf32> -> tensor<1x64xf32> loc(#loc162)
      %35 = tt.splat %28#1 : i32 -> tensor<1x64xi32> loc(#loc212)
      %36 = arith.xori %5, %35 : tensor<1x64xi32> loc(#loc212)
      %37 = tt.gather %30[%36] {axis = 1 : i32} : (tensor<1x64xf32>, tensor<1x64xi32>) -> tensor<1x64xf32> loc(#loc213)
      %38 = tt.splat %28#1 : i32 -> tensor<64xi32> loc(#loc165)
      %39 = arith.xori %0, %38 : tensor<64xi32> loc(#loc165)
      %40 = arith.subi %0, %39 : tensor<64xi32> loc(#loc166)
      %41 = arith.subf %30, %37 : tensor<1x64xf32> loc(#loc214)
      %42 = arith.mulf %41, %cst_1 : tensor<1x64xf32> loc(#loc215)
      %43 = arith.sitofp %40 : tensor<64xi32> to tensor<64xf32> loc(#loc216)
      %44 = arith.mulf %43, %cst_2 : tensor<64xf32> loc(#loc216)
      %45 = tt.expand_dims %44 {axis = 0 : i32} : tensor<64xf32> -> tensor<1x64xf32> loc(#loc217)
      %46 = arith.addf %42, %45 : tensor<1x64xf32> loc(#loc217)
      %47 = arith.cmpf olt, %46, %cst_6 : tensor<1x64xf32> loc(#loc218)
      %48 = arith.select %47, %cst_3, %cst_4 : tensor<1x64xi1>, tensor<1x64xf32> loc(#loc219)
      %49 = arith.mulf %34, %34 : tensor<1x64xf32> loc(#loc220)
      %50 = arith.addf %49, %cst_5 : tensor<1x64xf32> loc(#loc221)
      %51 = arith.mulf %42, %42 : tensor<1x64xf32> loc(#loc222)
      %52 = arith.addf %51, %50 : tensor<1x64xf32> loc(#loc223)
      %53 = math.sqrt %52 : tensor<1x64xf32> loc(#loc224)
      %54 = arith.mulf %48, %53 : tensor<1x64xf32> loc(#loc225)
      %55 = arith.addf %46, %54 : tensor<1x64xf32> loc(#loc226)
      %56 = arith.divf %34, %55 : tensor<1x64xf32> loc(#loc227)
      %57 = arith.mulf %56, %56 : tensor<1x64xf32> loc(#loc228)
      %58 = arith.addf %57, %cst_4 : tensor<1x64xf32> loc(#loc229)
      %59 = math.rsqrt %58 : tensor<1x64xf32> loc(#loc230)
      %60 = arith.mulf %56, %59 : tensor<1x64xf32> loc(#loc231)
      %61 = tt.broadcast %36 : tensor<1x64xi32> -> tensor<64x64xi32> loc(#loc232)
      %62 = tt.gather %arg5[%61] {axis = 1 : i32} : (tensor<64x64xf32>, tensor<64x64xi32>) -> tensor<64x64xf32> loc(#loc233)
      %63 = tt.broadcast %59 : tensor<1x64xf32> -> tensor<64x64xf32> loc(#loc187)
      %64 = arith.mulf %63, %arg5 : tensor<64x64xf32> loc(#loc187)
      %65 = tt.broadcast %60 : tensor<1x64xf32> -> tensor<64x64xf32> loc(#loc188)
      %66 = arith.mulf %65, %62 : tensor<64x64xf32> loc(#loc188)
      %67 = arith.addf %64, %66 : tensor<64x64xf32> loc(#loc189)
      %68 = tt.trans %67 {order = array<i32: 1, 0>} : tensor<64x64xf32> -> tensor<64x64xf32> loc(#loc133)
      %69 = tt.gather %68[%61] {axis = 1 : i32} : (tensor<64x64xf32>, tensor<64x64xi32>) -> tensor<64x64xf32> loc(#loc234)
      %70 = arith.mulf %63, %68 : tensor<64x64xf32> loc(#loc191)
      %71 = arith.mulf %65, %69 : tensor<64x64xf32> loc(#loc192)
      %72 = arith.addf %70, %71 : tensor<64x64xf32> loc(#loc193)
      %73 = tt.gather %arg6[%61] {axis = 1 : i32} : (tensor<64x64xf32>, tensor<64x64xi32>) -> tensor<64x64xf32> loc(#loc235)
      %74 = arith.mulf %63, %arg6 : tensor<64x64xf32> loc(#loc195)
      %75 = arith.mulf %65, %73 : tensor<64x64xf32> loc(#loc196)
      %76 = arith.addf %74, %75 : tensor<64x64xf32> loc(#loc197)
      scf.yield %72, %76 : tensor<64x64xf32>, tensor<64x64xf32> loc(#loc140)
    } loc(#loc85)
    %16 = tt.gather %15#0[%1] {axis = 1 : i32} : (tensor<64x64xf32>, tensor<64x1xi32>) -> tensor<64x1xf32> loc(#loc141)
    %17 = tt.reshape %16 : tensor<64x1xf32> -> tensor<64xf32> loc(#loc142)
    %18 = tt.splat %arg1 : !tt.ptr<f32> -> tensor<64x1x!tt.ptr<f32>> loc(#loc75)
    %19 = tt.addptr %18, %2 : tensor<64x1x!tt.ptr<f32>>, tensor<64x1xi32> loc(#loc75)
    %20 = tt.broadcast %19 : tensor<64x1x!tt.ptr<f32>> -> tensor<64x64x!tt.ptr<f32>> loc(#loc76)
    %21 = tt.addptr %20, %7 : tensor<64x64x!tt.ptr<f32>>, tensor<64x64xi32> loc(#loc76)
    tt.store %21, %15#1 : tensor<64x64x!tt.ptr<f32>> loc(#loc77)
    %22 = tt.splat %arg2 : !tt.ptr<f32> -> tensor<64x!tt.ptr<f32>> loc(#loc78)
    %23 = tt.addptr %22, %0 : tensor<64x!tt.ptr<f32>>, tensor<64xi32> loc(#loc78)
    tt.store %23, %17 : tensor<64x!tt.ptr<f32>> loc(#loc79)
    tt.return loc(#loc80)
  } loc(#loc)
} loc(#loc)
#loc2 = loc("/root/code/openai/lib/deuterium/deuterium/linalg/jacobi.py":219:33)
#loc3 = loc("/root/code/openai/lib/deuterium/deuterium/linalg/jacobi.py":219:42)
#loc4 = loc("/root/code/openai/lib/deuterium/deuterium/linalg/jacobi.py":219:53)
#loc5 = loc("/root/code/openai/lib/deuterium/deuterium/linalg/jacobi.py":219:20)
#loc6 = loc("/root/code/openai/lib/deuterium/deuterium/linalg/jacobi.py":219:85)
#loc7 = loc("/root/code/openai/lib/deuterium/deuterium/linalg/jacobi.py":219:63)
#loc8 = loc("/root/code/openai/lib/deuterium/deuterium/linalg/jacobi.py":219:16)
#loc9 = loc("/root/code/openai/lib/deuterium/deuterium/linalg/jacobi.py":172:43)
#loc11 = loc("/root/code/openai/lib/deuterium/deuterium/linalg/jacobi.py":172:78)
#loc12 = loc("/root/code/openai/lib/deuterium/deuterium/linalg/jacobi.py":140:37)
#loc15 = loc("/root/code/openai/lib/deuterium/deuterium/linalg/jacobi.py":177:48)
#loc16 = loc("/root/code/openai/lib/deuterium/deuterium/linalg/jacobi.py":174:20)
#loc17 = loc("/root/code/openai/lib/deuterium/deuterium/linalg/jacobi.py":133:29)
#loc18 = loc("/root/code/openai/lib/deuterium/deuterium/linalg/jacobi.py":141:31)
#loc19 = loc("/root/code/triton/python/triton/language/standard.py":267:36)
#loc21 = loc("/root/code/triton/python/triton/language/standard.py":256:15)
#loc22 = loc("/root/code/openai/lib/deuterium/deuterium/linalg/jacobi.py":177:58)
#loc23 = loc("/root/code/triton/python/triton/language/standard.py":174:58)
#loc26 = loc("/root/code/triton/python/triton/language/standard.py":142:24)
#loc27 = loc("/root/code/triton/python/triton/language/standard.py":153:59)
#loc28 = loc("/root/code/triton/python/triton/language/standard.py":142:44)
#loc29 = loc("/root/code/triton/python/triton/language/standard.py":142:35)
#loc30 = loc("/root/code/triton/python/triton/language/standard.py":145:18)
#loc31 = loc("/root/code/triton/python/triton/language/standard.py":145:28)
#loc32 = loc("/root/code/triton/python/triton/language/standard.py":146:35)
#loc33 = loc("/root/code/triton/python/triton/language/standard.py":147:35)
#loc34 = loc("/root/code/openai/lib/deuterium/deuterium/linalg/jacobi.py":113:21)
#loc35 = loc("/root/code/openai/lib/deuterium/deuterium/linalg/jacobi.py":181:46)
#loc36 = loc("/root/code/openai/lib/deuterium/deuterium/linalg/jacobi.py":113:75)
#loc37 = loc("/root/code/openai/lib/deuterium/deuterium/linalg/jacobi.py":114:60)
#loc38 = loc("/root/code/openai/lib/deuterium/deuterium/linalg/jacobi.py":114:21)
#loc39 = loc("/root/code/openai/lib/deuterium/deuterium/linalg/jacobi.py":114:79)
#loc40 = loc("/root/code/openai/lib/deuterium/deuterium/linalg/jacobi.py":87:83)
#loc41 = loc("/root/code/openai/lib/deuterium/deuterium/linalg/jacobi.py":116:26)
#loc42 = loc("/root/code/openai/lib/deuterium/deuterium/linalg/jacobi.py":87:86)
#loc43 = loc("/root/code/openai/lib/deuterium/deuterium/linalg/jacobi.py":118:60)
#loc44 = loc("/root/code/openai/lib/deuterium/deuterium/linalg/jacobi.py":118:36)
#loc45 = loc("/root/code/openai/lib/deuterium/deuterium/linalg/jacobi.py":26:19)
#loc46 = loc("/root/code/openai/lib/deuterium/deuterium/linalg/jacobi.py":120:43)
#loc47 = loc("/root/code/openai/lib/deuterium/deuterium/linalg/jacobi.py":26:15)
#loc48 = loc("/root/code/openai/lib/deuterium/deuterium/linalg/jacobi.py":35:23)
#loc49 = loc("/root/code/openai/lib/deuterium/deuterium/linalg/jacobi.py":35:16)
#loc50 = loc("/root/code/openai/lib/deuterium/deuterium/linalg/jacobi.py":36:23)
#loc51 = loc("/root/code/openai/lib/deuterium/deuterium/linalg/jacobi.py":36:32)
#loc52 = loc("/root/code/openai/lib/deuterium/deuterium/linalg/jacobi.py":40:13)
#loc53 = loc("/root/code/openai/lib/deuterium/deuterium/linalg/jacobi.py":40:17)
#loc54 = loc("/root/code/openai/lib/deuterium/deuterium/linalg/jacobi.py":41:24)
#loc55 = loc("/root/code/openai/lib/deuterium/deuterium/linalg/jacobi.py":41:28)
#loc56 = loc("/root/code/openai/lib/deuterium/deuterium/linalg/jacobi.py":41:22)
#loc57 = loc("/root/code/openai/lib/deuterium/deuterium/linalg/jacobi.py":41:14)
#loc58 = loc("/root/code/openai/lib/deuterium/deuterium/linalg/jacobi.py":46:17)
#loc59 = loc("/root/code/openai/lib/deuterium/deuterium/linalg/jacobi.py":46:13)
#loc60 = loc("/root/code/openai/lib/deuterium/deuterium/linalg/jacobi.py":47:25)
#loc61 = loc("/root/code/openai/lib/deuterium/deuterium/linalg/jacobi.py":47:23)
#loc62 = loc("/root/code/openai/lib/deuterium/deuterium/linalg/jacobi.py":47:17)
#loc63 = loc("/root/code/openai/lib/deuterium/deuterium/linalg/jacobi.py":48:9)
#loc64 = loc("/root/code/openai/lib/deuterium/deuterium/linalg/jacobi.py":161:26)
#loc65 = loc("/root/code/openai/lib/deuterium/deuterium/linalg/jacobi.py":182:60)
#loc66 = loc("/root/code/openai/lib/deuterium/deuterium/linalg/jacobi.py":163:15)
#loc67 = loc("/root/code/openai/lib/deuterium/deuterium/linalg/jacobi.py":163:23)
#loc68 = loc("/root/code/openai/lib/deuterium/deuterium/linalg/jacobi.py":163:19)
#loc69 = loc("/root/code/openai/lib/deuterium/deuterium/linalg/jacobi.py":182:36)
#loc70 = loc("/root/code/openai/lib/deuterium/deuterium/linalg/jacobi.py":182:71)
#loc71 = loc("/root/code/openai/lib/deuterium/deuterium/linalg/jacobi.py":183:36)
#loc72 = loc("/root/code/openai/lib/deuterium/deuterium/linalg/jacobi.py":183:8)
#loc73 = loc("/root/code/openai/lib/deuterium/deuterium/linalg/jacobi.py":185:21)
#loc74 = loc("/root/code/openai/lib/deuterium/deuterium/linalg/jacobi.py":185:75)
#loc75 = loc("/root/code/openai/lib/deuterium/deuterium/linalg/jacobi.py":221:17)
#loc76 = loc("/root/code/openai/lib/deuterium/deuterium/linalg/jacobi.py":221:60)
#loc77 = loc("/root/code/openai/lib/deuterium/deuterium/linalg/jacobi.py":221:92)
#loc78 = loc("/root/code/openai/lib/deuterium/deuterium/linalg/jacobi.py":222:17)
#loc79 = loc("/root/code/openai/lib/deuterium/deuterium/linalg/jacobi.py":222:40)
#loc80 = loc("/root/code/openai/lib/deuterium/deuterium/linalg/jacobi.py":222:4)
#loc81 = loc(callsite(#loc9 at #loc10))
#loc82 = loc(callsite(#loc11 at #loc10))
#loc83 = loc(callsite(#loc12 at #loc13))
#loc84 = loc(callsite(#loc15 at #loc10))
#loc85 = loc(callsite(#loc16 at #loc10))
#loc86 = loc(callsite(#loc17 at #loc14))
#loc87 = loc(callsite(#loc18 at #loc13))
#loc88 = loc(callsite(#loc19 at #loc20))
#loc90 = loc(callsite(#loc21 at #loc19))
#loc91 = loc(callsite(#loc22 at #loc10))
#loc92 = loc(callsite(#loc23 at #loc24))
#loc94 = loc(callsite(#loc26 at #loc27))
#loc95 = loc(callsite(#loc28 at #loc27))
#loc96 = loc(callsite(#loc29 at #loc27))
#loc97 = loc(callsite(#loc30 at #loc27))
#loc98 = loc(callsite(#loc31 at #loc27))
#loc99 = loc(callsite(#loc32 at #loc27))
#loc100 = loc(callsite(#loc33 at #loc27))
#loc101 = loc(callsite(#loc34 at #loc35))
#loc102 = loc(callsite(#loc36 at #loc35))
#loc103 = loc(callsite(#loc37 at #loc35))
#loc104 = loc(callsite(#loc38 at #loc35))
#loc105 = loc(callsite(#loc39 at #loc35))
#loc106 = loc(callsite(#loc40 at #loc41))
#loc107 = loc(callsite(#loc42 at #loc41))
#loc108 = loc(callsite(#loc43 at #loc35))
#loc109 = loc(callsite(#loc44 at #loc35))
#loc110 = loc(callsite(#loc45 at #loc46))
#loc111 = loc(callsite(#loc47 at #loc46))
#loc112 = loc(callsite(#loc48 at #loc46))
#loc113 = loc(callsite(#loc49 at #loc46))
#loc114 = loc(callsite(#loc50 at #loc46))
#loc115 = loc(callsite(#loc51 at #loc46))
#loc116 = loc(callsite(#loc52 at #loc46))
#loc117 = loc(callsite(#loc53 at #loc46))
#loc118 = loc(callsite(#loc54 at #loc46))
#loc119 = loc(callsite(#loc55 at #loc46))
#loc120 = loc(callsite(#loc56 at #loc46))
#loc121 = loc(callsite(#loc57 at #loc46))
#loc122 = loc(callsite(#loc58 at #loc46))
#loc123 = loc(callsite(#loc59 at #loc46))
#loc124 = loc(callsite(#loc60 at #loc46))
#loc125 = loc(callsite(#loc61 at #loc46))
#loc126 = loc(callsite(#loc62 at #loc46))
#loc127 = loc(callsite(#loc63 at #loc46))
#loc128 = loc(callsite(#loc40 at #loc64))
#loc129 = loc(callsite(#loc42 at #loc64))
#loc130 = loc(callsite(#loc66 at #loc65))
#loc131 = loc(callsite(#loc67 at #loc65))
#loc132 = loc(callsite(#loc68 at #loc65))
#loc133 = loc(callsite(#loc69 at #loc10))
#loc134 = loc(callsite(#loc66 at #loc70))
#loc135 = loc(callsite(#loc67 at #loc70))
#loc136 = loc(callsite(#loc68 at #loc70))
#loc137 = loc(callsite(#loc66 at #loc71))
#loc138 = loc(callsite(#loc67 at #loc71))
#loc139 = loc(callsite(#loc68 at #loc71))
#loc140 = loc(callsite(#loc72 at #loc10))
#loc141 = loc(callsite(#loc73 at #loc10))
#loc142 = loc(callsite(#loc74 at #loc10))
#loc143 = loc(callsite(#loc83 at #loc14))
#loc144 = loc(callsite(#loc86 at #loc10))
#loc145 = loc(callsite(#loc87 at #loc14))
#loc146 = loc(callsite(#loc88 at #loc13))
#loc148 = loc(callsite(#loc90 at #loc20))
#loc149 = loc(callsite(#loc92 at #loc25))
#loc151 = loc(callsite(#loc94 at #loc23))
#loc152 = loc(callsite(#loc95 at #loc23))
#loc153 = loc(callsite(#loc96 at #loc23))
#loc154 = loc(callsite(#loc97 at #loc23))
#loc155 = loc(callsite(#loc98 at #loc23))
#loc156 = loc(callsite(#loc99 at #loc23))
#loc157 = loc(callsite(#loc100 at #loc23))
#loc158 = loc(callsite(#loc101 at #loc10))
#loc159 = loc(callsite(#loc102 at #loc10))
#loc160 = loc(callsite(#loc103 at #loc10))
#loc161 = loc(callsite(#loc104 at #loc10))
#loc162 = loc(callsite(#loc105 at #loc10))
#loc163 = loc(callsite(#loc106 at #loc35))
#loc164 = loc(callsite(#loc107 at #loc35))
#loc165 = loc(callsite(#loc108 at #loc10))
#loc166 = loc(callsite(#loc109 at #loc10))
#loc167 = loc(callsite(#loc110 at #loc35))
#loc168 = loc(callsite(#loc111 at #loc35))
#loc169 = loc(callsite(#loc112 at #loc35))
#loc170 = loc(callsite(#loc113 at #loc35))
#loc171 = loc(callsite(#loc114 at #loc35))
#loc172 = loc(callsite(#loc115 at #loc35))
#loc173 = loc(callsite(#loc116 at #loc35))
#loc174 = loc(callsite(#loc117 at #loc35))
#loc175 = loc(callsite(#loc118 at #loc35))
#loc176 = loc(callsite(#loc119 at #loc35))
#loc177 = loc(callsite(#loc120 at #loc35))
#loc178 = loc(callsite(#loc121 at #loc35))
#loc179 = loc(callsite(#loc122 at #loc35))
#loc180 = loc(callsite(#loc123 at #loc35))
#loc181 = loc(callsite(#loc124 at #loc35))
#loc182 = loc(callsite(#loc125 at #loc35))
#loc183 = loc(callsite(#loc126 at #loc35))
#loc184 = loc(callsite(#loc127 at #loc35))
#loc185 = loc(callsite(#loc128 at #loc65))
#loc186 = loc(callsite(#loc129 at #loc65))
#loc187 = loc(callsite(#loc130 at #loc10))
#loc188 = loc(callsite(#loc131 at #loc10))
#loc189 = loc(callsite(#loc132 at #loc10))
#loc190 = loc(callsite(#loc129 at #loc70))
#loc191 = loc(callsite(#loc134 at #loc10))
#loc192 = loc(callsite(#loc135 at #loc10))
#loc193 = loc(callsite(#loc136 at #loc10))
#loc194 = loc(callsite(#loc129 at #loc71))
#loc195 = loc(callsite(#loc137 at #loc10))
#loc196 = loc(callsite(#loc138 at #loc10))
#loc197 = loc(callsite(#loc139 at #loc10))
#loc198 = loc(callsite(#loc143 at #loc10))
#loc199 = loc(callsite(#loc145 at #loc10))
#loc200 = loc(callsite(#loc146 at #loc14))
#loc202 = loc(callsite(#loc148 at #loc13))
#loc203 = loc(callsite(#loc149 at #loc10))
#loc205 = loc(callsite(#loc151 at #loc24))
#loc206 = loc(callsite(#loc152 at #loc24))
#loc207 = loc(callsite(#loc153 at #loc24))
#loc208 = loc(callsite(#loc154 at #loc24))
#loc209 = loc(callsite(#loc155 at #loc24))
#loc210 = loc(callsite(#loc156 at #loc24))
#loc211 = loc(callsite(#loc157 at #loc24))
#loc212 = loc(callsite(#loc163 at #loc10))
#loc213 = loc(callsite(#loc164 at #loc10))
#loc214 = loc(callsite(#loc167 at #loc10))
#loc215 = loc(callsite(#loc168 at #loc10))
#loc216 = loc(callsite(#loc169 at #loc10))
#loc217 = loc(callsite(#loc170 at #loc10))
#loc218 = loc(callsite(#loc171 at #loc10))
#loc219 = loc(callsite(#loc172 at #loc10))
#loc220 = loc(callsite(#loc173 at #loc10))
#loc221 = loc(callsite(#loc174 at #loc10))
#loc222 = loc(callsite(#loc175 at #loc10))
#loc223 = loc(callsite(#loc176 at #loc10))
#loc224 = loc(callsite(#loc177 at #loc10))
#loc225 = loc(callsite(#loc178 at #loc10))
#loc226 = loc(callsite(#loc179 at #loc10))
#loc227 = loc(callsite(#loc180 at #loc10))
#loc228 = loc(callsite(#loc181 at #loc10))
#loc229 = loc(callsite(#loc182 at #loc10))
#loc230 = loc(callsite(#loc183 at #loc10))
#loc231 = loc(callsite(#loc184 at #loc10))
#loc232 = loc(callsite(#loc185 at #loc10))
#loc233 = loc(callsite(#loc186 at #loc10))
#loc234 = loc(callsite(#loc190 at #loc10))
#loc235 = loc(callsite(#loc194 at #loc10))
#loc236 = loc(callsite(#loc200 at #loc10))
#loc238 = loc(callsite(#loc202 at #loc14))
#loc239 = loc(callsite(#loc205 at #loc25))
#loc240 = loc(callsite(#loc206 at #loc25))
#loc241 = loc(callsite(#loc207 at #loc25))
#loc242 = loc(callsite(#loc208 at #loc25))
#loc243 = loc(callsite(#loc209 at #loc25))
#loc244 = loc(callsite(#loc210 at #loc25))
#loc245 = loc(callsite(#loc211 at #loc25))
#loc246 = loc(callsite(#loc238 at #loc10))
#loc247 = loc(callsite(#loc239 at #loc10))
#loc248 = loc(callsite(#loc240 at #loc10))
#loc249 = loc(callsite(#loc241 at #loc10))
#loc250 = loc(callsite(#loc242 at #loc10))
#loc251 = loc(callsite(#loc243 at #loc10))
#loc252 = loc(callsite(#loc244 at #loc10))
#loc253 = loc(callsite(#loc245 at #loc10))
