module {
  func @matmul_kernel__Pfp16_Pfp16_Pfp16_i32_i32_i32_i32_i32_i32__7c1_9c1_11c1_12c128_13c128_14c128_15c8(%arg0: !tt.ptr<f16>, %arg1: !tt.ptr<f16>, %arg2: !tt.ptr<f16>, %arg3: i32, %arg4: i32, %arg5: i32, %arg6: i32, %arg7: i32, %arg8: i32) {
    %0 = tt.get_program_id {axis = 0 : i32} : i32
    %1 = call @"cdiv__i32__1cconstexpr[128]"(%arg3) : (i32) -> i32
    %2 = call @"cdiv__i32__1cconstexpr[128]"(%arg4) : (i32) -> i32
    %c8_i32 = arith.constant 8 : i32
    %3 = arith.muli %2, %c8_i32 : i32
    %4 = arith.divsi %0, %3 : i32
    %c8_i32_0 = arith.constant 8 : i32
    %5 = arith.muli %4, %c8_i32_0 : i32
    %6 = arith.subi %1, %5 : i32
    %7 = call @"minimum__i32__1cconstexpr[8]"(%6) : (i32) -> i32
    %8 = arith.remsi %0, %7 : i32
    %9 = arith.addi %5, %8 : i32
    %10 = arith.remsi %0, %3 : i32
    %11 = arith.divsi %10, %7 : i32
    %c128_i32 = arith.constant 128 : i32
    %12 = arith.muli %9, %c128_i32 : i32
    %13 = tt.make_range {end = 128 : i32, start = 0 : i32} : tensor<128xi32>
    %14 = tt.broadcast %12 : (i32) -> tensor<128xi32>
    %15 = arith.addi %14, %13 : tensor<128xi32>
    %c128_i32_1 = arith.constant 128 : i32
    %16 = arith.muli %11, %c128_i32_1 : i32
    %17 = tt.make_range {end = 128 : i32, start = 0 : i32} : tensor<128xi32>
    %18 = tt.broadcast %16 : (i32) -> tensor<128xi32>
    %19 = arith.addi %18, %17 : tensor<128xi32>
    %20 = tt.make_range {end = 128 : i32, start = 0 : i32} : tensor<128xi32>
    %21 = tt.reshape %15 : (tensor<128xi32>) -> tensor<128x1xi32>
    %22 = tt.broadcast %arg6 : (i32) -> tensor<128x1xi32>
    %23 = arith.muli %21, %22 : tensor<128x1xi32>
    %24 = tt.reshape %20 : (tensor<128xi32>) -> tensor<1x128xi32>
    %c1_i32 = arith.constant 1 : i32
    %25 = tt.broadcast %c1_i32 : (i32) -> tensor<1x128xi32>
    %26 = arith.muli %24, %25 : tensor<1x128xi32>
    %27 = tt.broadcast %23 : (tensor<128x1xi32>) -> tensor<128x128xi32>
    %28 = tt.broadcast %26 : (tensor<1x128xi32>) -> tensor<128x128xi32>
    %29 = arith.addi %27, %28 : tensor<128x128xi32>
    %30 = tt.broadcast %arg0 : (!tt.ptr<f16>) -> tensor<128x128x!tt.ptr<f16>>
    %31 = tt.getelementptr %30, %29, : tensor<128x128x!tt.ptr<f16>>
    %32 = tt.reshape %20 : (tensor<128xi32>) -> tensor<128x1xi32>
    %33 = tt.broadcast %arg7 : (i32) -> tensor<128x1xi32>
    %34 = arith.muli %32, %33 : tensor<128x1xi32>
    %35 = tt.reshape %19 : (tensor<128xi32>) -> tensor<1x128xi32>
    %c1_i32_2 = arith.constant 1 : i32
    %36 = tt.broadcast %c1_i32_2 : (i32) -> tensor<1x128xi32>
    %37 = arith.muli %35, %36 : tensor<1x128xi32>
    %38 = tt.broadcast %34 : (tensor<128x1xi32>) -> tensor<128x128xi32>
    %39 = tt.broadcast %37 : (tensor<1x128xi32>) -> tensor<128x128xi32>
    %40 = arith.addi %38, %39 : tensor<128x128xi32>
    %41 = tt.broadcast %arg1 : (!tt.ptr<f16>) -> tensor<128x128x!tt.ptr<f16>>
    %42 = tt.getelementptr %41, %40, : tensor<128x128x!tt.ptr<f16>>
    %cst = arith.constant 0.000000e+00 : f32
    %43 = tt.broadcast %cst : (f32) -> tensor<128x128xf32>
    %c0_i32 = arith.constant 0 : i32
    %c128_i32_3 = arith.constant 128 : i32
    %44 = arith.index_cast %c0_i32 : i32 to index
    %45 = arith.index_cast %arg5 : i32 to index
    %46 = arith.index_cast %c128_i32_3 : i32 to index
    %47:3 = scf.for %arg9 = %44 to %45 step %46 iter_args(%arg10 = %43, %arg11 = %31, %arg12 = %42) -> (tensor<128x128xf32>, tensor<128x128x!tt.ptr<f16>>, tensor<128x128x!tt.ptr<f16>>) {
      %cst_7 = arith.constant dense<true> : tensor<128x128xi1>
      %cst_8 = arith.constant dense<0.000000e+00> : tensor<128x128xf16>
      %77 = tt.load %arg11, %cst_7, %cst_8 {cache = 1 : i32, evict = 1 : i32, isVolatile = false} : tensor<128x128xf16>
      %cst_9 = arith.constant dense<true> : tensor<128x128xi1>
      %cst_10 = arith.constant dense<0.000000e+00> : tensor<128x128xf16>
      %78 = tt.load %arg12, %cst_9, %cst_10 {cache = 1 : i32, evict = 1 : i32, isVolatile = false} : tensor<128x128xf16>
      %cst_11 = arith.constant 0.000000e+00 : f32
      %79 = tt.broadcast %cst_11 : (f32) -> tensor<128x128xf32>
      %80 = tt.dot %77, %78, %79 {allowTF32 = true} : tensor<128x128xf16> * tensor<128x128xf16> -> tensor<128x128xf32>
      %81 = arith.addf %arg10, %80 : tensor<128x128xf32>
      %c128_i32_12 = arith.constant 128 : i32
      %82 = tt.broadcast %c128_i32_12 : (i32) -> tensor<128x128xi32>
      %83 = tt.getelementptr %arg11, %82, : tensor<128x128x!tt.ptr<f16>>
      %c128_i32_13 = arith.constant 128 : i32
      %84 = arith.muli %arg7, %c128_i32_13 : i32
      %85 = tt.broadcast %84 : (i32) -> tensor<128x128xi32>
      %86 = tt.getelementptr %arg12, %85, : tensor<128x128x!tt.ptr<f16>>
      scf.yield %81, %83, %86 : tensor<128x128xf32>, tensor<128x128x!tt.ptr<f16>>, tensor<128x128x!tt.ptr<f16>>
    }
    %48 = arith.truncf %47#0 : tensor<128x128xf32> to tensor<128x128xf16>
    %c128_i32_4 = arith.constant 128 : i32
    %49 = arith.muli %9, %c128_i32_4 : i32
    %50 = tt.make_range {end = 128 : i32, start = 0 : i32} : tensor<128xi32>
    %51 = tt.broadcast %49 : (i32) -> tensor<128xi32>
    %52 = arith.addi %51, %50 : tensor<128xi32>
    %c128_i32_5 = arith.constant 128 : i32
    %53 = arith.muli %11, %c128_i32_5 : i32
    %54 = tt.make_range {end = 128 : i32, start = 0 : i32} : tensor<128xi32>
    %55 = tt.broadcast %53 : (i32) -> tensor<128xi32>
    %56 = arith.addi %55, %54 : tensor<128xi32>
    %57 = tt.reshape %52 : (tensor<128xi32>) -> tensor<128x1xi32>
    %58 = tt.broadcast %arg8 : (i32) -> tensor<128x1xi32>
    %59 = arith.muli %58, %57 : tensor<128x1xi32>
    %60 = tt.broadcast %arg2 : (!tt.ptr<f16>) -> tensor<128x1x!tt.ptr<f16>>
    %61 = tt.getelementptr %60, %59, : tensor<128x1x!tt.ptr<f16>>
    %62 = tt.reshape %56 : (tensor<128xi32>) -> tensor<1x128xi32>
    %c1_i32_6 = arith.constant 1 : i32
    %63 = tt.broadcast %c1_i32_6 : (i32) -> tensor<1x128xi32>
    %64 = arith.muli %62, %63 : tensor<1x128xi32>
    %65 = tt.broadcast %61 : (tensor<128x1x!tt.ptr<f16>>) -> tensor<128x128x!tt.ptr<f16>>
    %66 = tt.broadcast %64 : (tensor<1x128xi32>) -> tensor<128x128xi32>
    %67 = tt.getelementptr %65, %66, : tensor<128x128x!tt.ptr<f16>>
    %68 = tt.reshape %52 : (tensor<128xi32>) -> tensor<128x1xi32>
    %69 = tt.broadcast %arg3 : (i32) -> tensor<128x1xi32>
    %70 = arith.cmpi slt, %68, %69 : tensor<128x1xi32>
    %71 = tt.reshape %56 : (tensor<128xi32>) -> tensor<1x128xi32>
    %72 = tt.broadcast %arg4 : (i32) -> tensor<1x128xi32>
    %73 = arith.cmpi slt, %71, %72 : tensor<1x128xi32>
    %74 = tt.broadcast %70 : (tensor<128x1xi1>) -> tensor<128x128xi1>
    %75 = tt.broadcast %73 : (tensor<1x128xi1>) -> tensor<128x128xi1>
    %76 = arith.andi %74, %75 : tensor<128x128xi1>
    tt.store %67, %48, %76, : tensor<128x128xf16>
    return
  }
  func @"cdiv__i32__1cconstexpr[128]"(%arg0: i32) -> i32 {
    %c128_i32 = arith.constant 128 : i32
    %0 = arith.addi %arg0, %c128_i32 : i32
    %c1_i32 = arith.constant 1 : i32
    %1 = arith.subi %0, %c1_i32 : i32
    %c128_i32_0 = arith.constant 128 : i32
    %2 = arith.divsi %1, %c128_i32_0 : i32
    return %2 : i32
  }
  func @"minimum__i32__1cconstexpr[8]"(%arg0: i32) -> i32 {
    %c8_i32 = arith.constant 8 : i32
    %0 = arith.cmpi slt, %arg0, %c8_i32 : i32
    %c8_i32_0 = arith.constant 8 : i32
    %1 = select %0, %arg0, %c8_i32_0 : i32
    return %1 : i32
  }
}
module {
  func @matmul_kernel__Pfp16_Pfp16_Pfp16_i32_i32_i32_i32_i32_i32__7c1_9c1_11c1_12c128_13c128_14c128_15c8(%arg0: !tt.ptr<f16>, %arg1: !tt.ptr<f16>, %arg2: !tt.ptr<f16>, %arg3: i32, %arg4: i32, %arg5: i32, %arg6: i32, %arg7: i32, %arg8: i32) {
    %c8_i32 = arith.constant 8 : i32
    %c127_i32 = arith.constant 127 : i32
    %c128_i32 = arith.constant 128 : i32
    %cst = arith.constant 0.000000e+00 : f32
    %c0 = arith.constant 0 : index
    %c128 = arith.constant 128 : index
    %cst_0 = arith.constant dense<true> : tensor<128x128xi1, #triton_gpu<"coalesced encoding<threadTileSize = 1, 1, blockTileSize = 32, 1, order = 0, 1>">>
    %cst_1 = arith.constant dense<0.000000e+00> : tensor<128x128xf16, #triton_gpu<"coalesced encoding<threadTileSize = 1, 1, blockTileSize = 32, 1, order = 0, 1>">>
    %c1_i32 = arith.constant 1 : i32
    %0 = tt.get_program_id {axis = 0 : i32} : i32
    %1 = arith.addi %arg3, %c127_i32 : i32
    %2 = arith.divsi %1, %c128_i32 : i32
    %3 = arith.addi %arg4, %c127_i32 : i32
    %4 = arith.divsi %3, %c128_i32 : i32
    %5 = arith.muli %4, %c8_i32 : i32
    %6 = arith.divsi %0, %5 : i32
    %7 = arith.muli %6, %c8_i32 : i32
    %8 = arith.subi %2, %7 : i32
    %9 = arith.cmpi slt, %8, %c8_i32 : i32
    %10 = select %9, %8, %c8_i32 : i32
    %11 = arith.remsi %0, %10 : i32
    %12 = arith.addi %7, %11 : i32
    %13 = arith.remsi %0, %5 : i32
    %14 = arith.divsi %13, %10 : i32
    %15 = arith.muli %12, %c128_i32 : i32
    %16 = tt.make_range {end = 128 : i32, start = 0 : i32} : tensor<128xi32, #triton_gpu<"coalesced encoding<threadTileSize = 1, blockTileSize = 32, order = 0>">>
    %17 = tt.broadcast %15 : (i32) -> tensor<128xi32, #triton_gpu<"coalesced encoding<threadTileSize = 1, blockTileSize = 32, order = 0>">>
    %18 = arith.addi %17, %16 : tensor<128xi32, #triton_gpu<"coalesced encoding<threadTileSize = 1, blockTileSize = 32, order = 0>">>
    %19 = arith.muli %14, %c128_i32 : i32
    %20 = tt.make_range {end = 128 : i32, start = 0 : i32} : tensor<128xi32, #triton_gpu<"coalesced encoding<threadTileSize = 1, blockTileSize = 32, order = 0>">>
    %21 = tt.broadcast %19 : (i32) -> tensor<128xi32, #triton_gpu<"coalesced encoding<threadTileSize = 1, blockTileSize = 32, order = 0>">>
    %22 = arith.addi %21, %20 : tensor<128xi32, #triton_gpu<"coalesced encoding<threadTileSize = 1, blockTileSize = 32, order = 0>">>
    %23 = tt.make_range {end = 128 : i32, start = 0 : i32} : tensor<128xi32, #triton_gpu<"coalesced encoding<threadTileSize = 1, blockTileSize = 32, order = 0>">>
    %24 = tt.reshape %18 : (tensor<128xi32, #triton_gpu<"coalesced encoding<threadTileSize = 1, blockTileSize = 32, order = 0>">>) -> tensor<128x1xi32, #triton_gpu<"coalesced encoding<threadTileSize = 1, 1, blockTileSize = 32, 1, order = 0, 1>">>
    %25 = tt.broadcast %arg6 : (i32) -> tensor<128x1xi32, #triton_gpu<"coalesced encoding<threadTileSize = 1, 1, blockTileSize = 32, 1, order = 0, 1>">>
    %26 = arith.muli %24, %25 : tensor<128x1xi32, #triton_gpu<"coalesced encoding<threadTileSize = 1, 1, blockTileSize = 32, 1, order = 0, 1>">>
    %27 = tt.reshape %23 : (tensor<128xi32, #triton_gpu<"coalesced encoding<threadTileSize = 1, blockTileSize = 32, order = 0>">>) -> tensor<1x128xi32, #triton_gpu<"coalesced encoding<threadTileSize = 1, 1, blockTileSize = 1, 32, order = 0, 1>">>
    %28 = tt.broadcast %c1_i32 : (i32) -> tensor<1x128xi32, #triton_gpu<"coalesced encoding<threadTileSize = 1, 1, blockTileSize = 1, 32, order = 0, 1>">>
    %29 = arith.muli %27, %28 : tensor<1x128xi32, #triton_gpu<"coalesced encoding<threadTileSize = 1, 1, blockTileSize = 1, 32, order = 0, 1>">>
    %30 = tt.broadcast %26 : (tensor<128x1xi32, #triton_gpu<"coalesced encoding<threadTileSize = 1, 1, blockTileSize = 32, 1, order = 0, 1>">>) -> tensor<128x128xi32, #triton_gpu<"coalesced encoding<threadTileSize = 1, 1, blockTileSize = 32, 1, order = 0, 1>">>
    %31 = tt.broadcast %29 : (tensor<1x128xi32, #triton_gpu<"coalesced encoding<threadTileSize = 1, 1, blockTileSize = 1, 32, order = 0, 1>">>) -> tensor<128x128xi32, #triton_gpu<"coalesced encoding<threadTileSize = 1, 1, blockTileSize = 32, 1, order = 0, 1>">>
    %32 = arith.addi %30, %31 : tensor<128x128xi32, #triton_gpu<"coalesced encoding<threadTileSize = 1, 1, blockTileSize = 32, 1, order = 0, 1>">>
    %33 = tt.broadcast %arg0 : (!tt.ptr<f16>) -> tensor<128x128x!tt.ptr<f16>, #triton_gpu<"coalesced encoding<threadTileSize = 1, 1, blockTileSize = 32, 1, order = 0, 1>">>
    %34 = tt.getelementptr %33, %32, : tensor<128x128x!tt.ptr<f16>, #triton_gpu<"coalesced encoding<threadTileSize = 1, 1, blockTileSize = 32, 1, order = 0, 1>">>
    %35 = tt.reshape %23 : (tensor<128xi32, #triton_gpu<"coalesced encoding<threadTileSize = 1, blockTileSize = 32, order = 0>">>) -> tensor<128x1xi32, #triton_gpu<"coalesced encoding<threadTileSize = 1, 1, blockTileSize = 32, 1, order = 0, 1>">>
    %36 = tt.broadcast %arg7 : (i32) -> tensor<128x1xi32, #triton_gpu<"coalesced encoding<threadTileSize = 1, 1, blockTileSize = 32, 1, order = 0, 1>">>
    %37 = arith.muli %35, %36 : tensor<128x1xi32, #triton_gpu<"coalesced encoding<threadTileSize = 1, 1, blockTileSize = 32, 1, order = 0, 1>">>
    %38 = tt.reshape %22 : (tensor<128xi32, #triton_gpu<"coalesced encoding<threadTileSize = 1, blockTileSize = 32, order = 0>">>) -> tensor<1x128xi32, #triton_gpu<"coalesced encoding<threadTileSize = 1, 1, blockTileSize = 1, 32, order = 0, 1>">>
    %39 = tt.broadcast %c1_i32 : (i32) -> tensor<1x128xi32, #triton_gpu<"coalesced encoding<threadTileSize = 1, 1, blockTileSize = 1, 32, order = 0, 1>">>
    %40 = arith.muli %38, %39 : tensor<1x128xi32, #triton_gpu<"coalesced encoding<threadTileSize = 1, 1, blockTileSize = 1, 32, order = 0, 1>">>
    %41 = tt.broadcast %37 : (tensor<128x1xi32, #triton_gpu<"coalesced encoding<threadTileSize = 1, 1, blockTileSize = 32, 1, order = 0, 1>">>) -> tensor<128x128xi32, #triton_gpu<"coalesced encoding<threadTileSize = 1, 1, blockTileSize = 32, 1, order = 0, 1>">>
    %42 = tt.broadcast %40 : (tensor<1x128xi32, #triton_gpu<"coalesced encoding<threadTileSize = 1, 1, blockTileSize = 1, 32, order = 0, 1>">>) -> tensor<128x128xi32, #triton_gpu<"coalesced encoding<threadTileSize = 1, 1, blockTileSize = 32, 1, order = 0, 1>">>
    %43 = arith.addi %41, %42 : tensor<128x128xi32, #triton_gpu<"coalesced encoding<threadTileSize = 1, 1, blockTileSize = 32, 1, order = 0, 1>">>
    %44 = tt.broadcast %arg1 : (!tt.ptr<f16>) -> tensor<128x128x!tt.ptr<f16>, #triton_gpu<"coalesced encoding<threadTileSize = 1, 1, blockTileSize = 32, 1, order = 0, 1>">>
    %45 = tt.getelementptr %44, %43, : tensor<128x128x!tt.ptr<f16>, #triton_gpu<"coalesced encoding<threadTileSize = 1, 1, blockTileSize = 32, 1, order = 0, 1>">>
    %46 = tt.broadcast %cst : (f32) -> tensor<128x128xf32, #triton_gpu<"coalesced encoding<threadTileSize = 1, 1, blockTileSize = 32, 1, order = 0, 1>">>
    %47 = arith.index_cast %arg5 : i32 to index
    %48 = tt.load %34, %cst_0, %cst_1 {cache = 1 : i32, evict = 1 : i32, isVolatile = false} : tensor<128x128xf16, #triton_gpu<"coalesced encoding<threadTileSize = 1, 1, blockTileSize = 32, 1, order = 0, 1>">>
    %49 = tt.load %45, %cst_0, %cst_1 {cache = 1 : i32, evict = 1 : i32, isVolatile = false} : tensor<128x128xf16, #triton_gpu<"coalesced encoding<threadTileSize = 1, 1, blockTileSize = 32, 1, order = 0, 1>">>
    %50 = "triton_gpu.convert_layout"(%48) : (tensor<128x128xf16, #triton_gpu<"coalesced encoding<threadTileSize = 1, 1, blockTileSize = 32, 1, order = 0, 1>">>) -> tensor<128x128xf16, #triton_gpu<"shared (memory) encoding<>">>
    %51 = "triton_gpu.convert_layout"(%49) : (tensor<128x128xf16, #triton_gpu<"coalesced encoding<threadTileSize = 1, 1, blockTileSize = 32, 1, order = 0, 1>">>) -> tensor<128x128xf16, #triton_gpu<"shared (memory) encoding<>">>
    %52 = tt.broadcast %c128_i32 : (i32) -> tensor<128x128xi32, #triton_gpu<"coalesced encoding<threadTileSize = 1, 1, blockTileSize = 32, 1, order = 0, 1>">>
    %53 = tt.getelementptr %34, %52, : tensor<128x128x!tt.ptr<f16>, #triton_gpu<"coalesced encoding<threadTileSize = 1, 1, blockTileSize = 32, 1, order = 0, 1>">>
    %54 = arith.muli %arg7, %c128_i32 : i32
    %55 = tt.broadcast %54 : (i32) -> tensor<128x128xi32, #triton_gpu<"coalesced encoding<threadTileSize = 1, 1, blockTileSize = 32, 1, order = 0, 1>">>
    %56 = tt.getelementptr %45, %55, : tensor<128x128x!tt.ptr<f16>, #triton_gpu<"coalesced encoding<threadTileSize = 1, 1, blockTileSize = 32, 1, order = 0, 1>">>
    %57:8 = scf.for %arg9 = %c0 to %47 step %c128 iter_args(%arg10 = %46, %arg11 = %34, %arg12 = %45, %arg13 = %50, %arg14 = %51, %arg15 = %56, %arg16 = %53, %arg17 = %c0) -> (tensor<128x128xf32, #triton_gpu<"coalesced encoding<threadTileSize = 1, 1, blockTileSize = 32, 1, order = 0, 1>">>, tensor<128x128x!tt.ptr<f16>, #triton_gpu<"coalesced encoding<threadTileSize = 1, 1, blockTileSize = 32, 1, order = 0, 1>">>, tensor<128x128x!tt.ptr<f16>, #triton_gpu<"coalesced encoding<threadTileSize = 1, 1, blockTileSize = 32, 1, order = 0, 1>">>, tensor<128x128xf16, #triton_gpu<"shared (memory) encoding<>">>, tensor<128x128xf16, #triton_gpu<"shared (memory) encoding<>">>, tensor<128x128x!tt.ptr<f16>, #triton_gpu<"coalesced encoding<threadTileSize = 1, 1, blockTileSize = 32, 1, order = 0, 1>">>, tensor<128x128x!tt.ptr<f16>, #triton_gpu<"coalesced encoding<threadTileSize = 1, 1, blockTileSize = 32, 1, order = 0, 1>">>, index) {
      %87 = tt.dot %arg13, %arg14, %arg10 {allowTF32 = true} : tensor<128x128xf16, #triton_gpu<"shared (memory) encoding<>">> * tensor<128x128xf16, #triton_gpu<"shared (memory) encoding<>">> -> tensor<128x128xf32, #triton_gpu<"coalesced encoding<threadTileSize = 1, 1, blockTileSize = 32, 1, order = 0, 1>">>
      %88 = tt.broadcast %c128_i32 : (i32) -> tensor<128x128xi32, #triton_gpu<"coalesced encoding<threadTileSize = 1, 1, blockTileSize = 32, 1, order = 0, 1>">>
      %89 = tt.getelementptr %arg11, %88, : tensor<128x128x!tt.ptr<f16>, #triton_gpu<"coalesced encoding<threadTileSize = 1, 1, blockTileSize = 32, 1, order = 0, 1>">>
      %90 = arith.muli %arg7, %c128_i32 : i32
      %91 = tt.broadcast %90 : (i32) -> tensor<128x128xi32, #triton_gpu<"coalesced encoding<threadTileSize = 1, 1, blockTileSize = 32, 1, order = 0, 1>">>
      %92 = tt.getelementptr %arg12, %91, : tensor<128x128x!tt.ptr<f16>, #triton_gpu<"coalesced encoding<threadTileSize = 1, 1, blockTileSize = 32, 1, order = 0, 1>">>
      %93 = arith.addi %arg17, %c128 : index
      %94 = arith.cmpi slt, %93, %47 : index
      %95 = tt.broadcast %94 : (i1) -> tensor<128x128xi1, #triton_gpu<"coalesced encoding<threadTileSize = 1, 1, blockTileSize = 32, 1, order = 0, 1>">>
      %96 = tt.load %arg16, %95, %cst_1 {cache = 1 : i32, evict = 1 : i32, isVolatile = false} : tensor<128x128xf16, #triton_gpu<"coalesced encoding<threadTileSize = 1, 1, blockTileSize = 32, 1, order = 0, 1>">>
      %97 = tt.broadcast %94 : (i1) -> tensor<128x128xi1, #triton_gpu<"coalesced encoding<threadTileSize = 1, 1, blockTileSize = 32, 1, order = 0, 1>">>
      %98 = arith.andi %97, %95 : tensor<128x128xi1, #triton_gpu<"coalesced encoding<threadTileSize = 1, 1, blockTileSize = 32, 1, order = 0, 1>">>
      %99 = tt.load %arg15, %98, %cst_1 {cache = 1 : i32, evict = 1 : i32, isVolatile = false} : tensor<128x128xf16, #triton_gpu<"coalesced encoding<threadTileSize = 1, 1, blockTileSize = 32, 1, order = 0, 1>">>
      %100 = "triton_gpu.convert_layout"(%96) : (tensor<128x128xf16, #triton_gpu<"coalesced encoding<threadTileSize = 1, 1, blockTileSize = 32, 1, order = 0, 1>">>) -> tensor<128x128xf16, #triton_gpu<"shared (memory) encoding<>">>
      %101 = "triton_gpu.convert_layout"(%99) : (tensor<128x128xf16, #triton_gpu<"coalesced encoding<threadTileSize = 1, 1, blockTileSize = 32, 1, order = 0, 1>">>) -> tensor<128x128xf16, #triton_gpu<"shared (memory) encoding<>">>
      %102 = tt.broadcast %c128_i32 : (i32) -> tensor<128x128xi32, #triton_gpu<"coalesced encoding<threadTileSize = 1, 1, blockTileSize = 32, 1, order = 0, 1>">>
      %103 = tt.getelementptr %arg16, %102, : tensor<128x128x!tt.ptr<f16>, #triton_gpu<"coalesced encoding<threadTileSize = 1, 1, blockTileSize = 32, 1, order = 0, 1>">>
      %104 = arith.muli %arg7, %c128_i32 : i32
      %105 = tt.broadcast %104 : (i32) -> tensor<128x128xi32, #triton_gpu<"coalesced encoding<threadTileSize = 1, 1, blockTileSize = 32, 1, order = 0, 1>">>
      %106 = tt.getelementptr %arg15, %105, : tensor<128x128x!tt.ptr<f16>, #triton_gpu<"coalesced encoding<threadTileSize = 1, 1, blockTileSize = 32, 1, order = 0, 1>">>
      scf.yield %87, %89, %92, %100, %101, %106, %103, %93 : tensor<128x128xf32, #triton_gpu<"coalesced encoding<threadTileSize = 1, 1, blockTileSize = 32, 1, order = 0, 1>">>, tensor<128x128x!tt.ptr<f16>, #triton_gpu<"coalesced encoding<threadTileSize = 1, 1, blockTileSize = 32, 1, order = 0, 1>">>, tensor<128x128x!tt.ptr<f16>, #triton_gpu<"coalesced encoding<threadTileSize = 1, 1, blockTileSize = 32, 1, order = 0, 1>">>, tensor<128x128xf16, #triton_gpu<"shared (memory) encoding<>">>, tensor<128x128xf16, #triton_gpu<"shared (memory) encoding<>">>, tensor<128x128x!tt.ptr<f16>, #triton_gpu<"coalesced encoding<threadTileSize = 1, 1, blockTileSize = 32, 1, order = 0, 1>">>, tensor<128x128x!tt.ptr<f16>, #triton_gpu<"coalesced encoding<threadTileSize = 1, 1, blockTileSize = 32, 1, order = 0, 1>">>, index
    }
    %58 = arith.truncf %57#0 : tensor<128x128xf32, #triton_gpu<"coalesced encoding<threadTileSize = 1, 1, blockTileSize = 32, 1, order = 0, 1>">> to tensor<128x128xf16, #triton_gpu<"coalesced encoding<threadTileSize = 1, 1, blockTileSize = 32, 1, order = 0, 1>">>
    %59 = arith.muli %12, %c128_i32 : i32
    %60 = tt.make_range {end = 128 : i32, start = 0 : i32} : tensor<128xi32, #triton_gpu<"coalesced encoding<threadTileSize = 1, blockTileSize = 32, order = 0>">>
    %61 = tt.broadcast %59 : (i32) -> tensor<128xi32, #triton_gpu<"coalesced encoding<threadTileSize = 1, blockTileSize = 32, order = 0>">>
    %62 = arith.addi %61, %60 : tensor<128xi32, #triton_gpu<"coalesced encoding<threadTileSize = 1, blockTileSize = 32, order = 0>">>
    %63 = arith.muli %14, %c128_i32 : i32
    %64 = tt.make_range {end = 128 : i32, start = 0 : i32} : tensor<128xi32, #triton_gpu<"coalesced encoding<threadTileSize = 1, blockTileSize = 32, order = 0>">>
    %65 = tt.broadcast %63 : (i32) -> tensor<128xi32, #triton_gpu<"coalesced encoding<threadTileSize = 1, blockTileSize = 32, order = 0>">>
    %66 = arith.addi %65, %64 : tensor<128xi32, #triton_gpu<"coalesced encoding<threadTileSize = 1, blockTileSize = 32, order = 0>">>
    %67 = tt.reshape %62 : (tensor<128xi32, #triton_gpu<"coalesced encoding<threadTileSize = 1, blockTileSize = 32, order = 0>">>) -> tensor<128x1xi32, #triton_gpu<"coalesced encoding<threadTileSize = 1, 1, blockTileSize = 32, 1, order = 0, 1>">>
    %68 = tt.broadcast %arg8 : (i32) -> tensor<128x1xi32, #triton_gpu<"coalesced encoding<threadTileSize = 1, 1, blockTileSize = 32, 1, order = 0, 1>">>
    %69 = arith.muli %68, %67 : tensor<128x1xi32, #triton_gpu<"coalesced encoding<threadTileSize = 1, 1, blockTileSize = 32, 1, order = 0, 1>">>
    %70 = tt.broadcast %arg2 : (!tt.ptr<f16>) -> tensor<128x1x!tt.ptr<f16>, #triton_gpu<"coalesced encoding<threadTileSize = 1, 1, blockTileSize = 32, 1, order = 0, 1>">>
    %71 = tt.getelementptr %70, %69, : tensor<128x1x!tt.ptr<f16>, #triton_gpu<"coalesced encoding<threadTileSize = 1, 1, blockTileSize = 32, 1, order = 0, 1>">>
    %72 = tt.reshape %66 : (tensor<128xi32, #triton_gpu<"coalesced encoding<threadTileSize = 1, blockTileSize = 32, order = 0>">>) -> tensor<1x128xi32, #triton_gpu<"coalesced encoding<threadTileSize = 1, 1, blockTileSize = 1, 32, order = 0, 1>">>
    %73 = tt.broadcast %c1_i32 : (i32) -> tensor<1x128xi32, #triton_gpu<"coalesced encoding<threadTileSize = 1, 1, blockTileSize = 1, 32, order = 0, 1>">>
    %74 = arith.muli %72, %73 : tensor<1x128xi32, #triton_gpu<"coalesced encoding<threadTileSize = 1, 1, blockTileSize = 1, 32, order = 0, 1>">>
    %75 = tt.broadcast %71 : (tensor<128x1x!tt.ptr<f16>, #triton_gpu<"coalesced encoding<threadTileSize = 1, 1, blockTileSize = 32, 1, order = 0, 1>">>) -> tensor<128x128x!tt.ptr<f16>, #triton_gpu<"coalesced encoding<threadTileSize = 1, 1, blockTileSize = 32, 1, order = 0, 1>">>
    %76 = tt.broadcast %74 : (tensor<1x128xi32, #triton_gpu<"coalesced encoding<threadTileSize = 1, 1, blockTileSize = 1, 32, order = 0, 1>">>) -> tensor<128x128xi32, #triton_gpu<"coalesced encoding<threadTileSize = 1, 1, blockTileSize = 32, 1, order = 0, 1>">>
    %77 = tt.getelementptr %75, %76, : tensor<128x128x!tt.ptr<f16>, #triton_gpu<"coalesced encoding<threadTileSize = 1, 1, blockTileSize = 32, 1, order = 0, 1>">>
    %78 = tt.reshape %62 : (tensor<128xi32, #triton_gpu<"coalesced encoding<threadTileSize = 1, blockTileSize = 32, order = 0>">>) -> tensor<128x1xi32, #triton_gpu<"coalesced encoding<threadTileSize = 1, 1, blockTileSize = 32, 1, order = 0, 1>">>
    %79 = tt.broadcast %arg3 : (i32) -> tensor<128x1xi32, #triton_gpu<"coalesced encoding<threadTileSize = 1, 1, blockTileSize = 32, 1, order = 0, 1>">>
    %80 = "triton_gpu.cmpi"(%78, %79) {predicate = 2 : i64} : (tensor<128x1xi32, #triton_gpu<"coalesced encoding<threadTileSize = 1, 1, blockTileSize = 32, 1, order = 0, 1>">>, tensor<128x1xi32, #triton_gpu<"coalesced encoding<threadTileSize = 1, 1, blockTileSize = 32, 1, order = 0, 1>">>) -> tensor<128x1xi1, #triton_gpu<"coalesced encoding<threadTileSize = 1, 1, blockTileSize = 32, 1, order = 0, 1>">>
    %81 = tt.reshape %66 : (tensor<128xi32, #triton_gpu<"coalesced encoding<threadTileSize = 1, blockTileSize = 32, order = 0>">>) -> tensor<1x128xi32, #triton_gpu<"coalesced encoding<threadTileSize = 1, 1, blockTileSize = 1, 32, order = 0, 1>">>
    %82 = tt.broadcast %arg4 : (i32) -> tensor<1x128xi32, #triton_gpu<"coalesced encoding<threadTileSize = 1, 1, blockTileSize = 1, 32, order = 0, 1>">>
    %83 = "triton_gpu.cmpi"(%81, %82) {predicate = 2 : i64} : (tensor<1x128xi32, #triton_gpu<"coalesced encoding<threadTileSize = 1, 1, blockTileSize = 1, 32, order = 0, 1>">>, tensor<1x128xi32, #triton_gpu<"coalesced encoding<threadTileSize = 1, 1, blockTileSize = 1, 32, order = 0, 1>">>) -> tensor<1x128xi1, #triton_gpu<"coalesced encoding<threadTileSize = 1, 1, blockTileSize = 1, 32, order = 0, 1>">>
    %84 = tt.broadcast %80 : (tensor<128x1xi1, #triton_gpu<"coalesced encoding<threadTileSize = 1, 1, blockTileSize = 32, 1, order = 0, 1>">>) -> tensor<128x128xi1, #triton_gpu<"coalesced encoding<threadTileSize = 1, 1, blockTileSize = 32, 1, order = 0, 1>">>
    %85 = tt.broadcast %83 : (tensor<1x128xi1, #triton_gpu<"coalesced encoding<threadTileSize = 1, 1, blockTileSize = 1, 32, order = 0, 1>">>) -> tensor<128x128xi1, #triton_gpu<"coalesced encoding<threadTileSize = 1, 1, blockTileSize = 32, 1, order = 0, 1>">>
    %86 = arith.andi %84, %85 : tensor<128x128xi1, #triton_gpu<"coalesced encoding<threadTileSize = 1, 1, blockTileSize = 32, 1, order = 0, 1>">>
    tt.store %77, %58, %86, : tensor<128x128xf16, #triton_gpu<"coalesced encoding<threadTileSize = 1, 1, blockTileSize = 32, 1, order = 0, 1>">>
    return
  }
  func @"cdiv__i32__1cconstexpr[128]"(%arg0: i32) -> i32 {
    %c128_i32 = arith.constant 128 : i32
    %c127_i32 = arith.constant 127 : i32
    %0 = arith.addi %arg0, %c127_i32 : i32
    %1 = arith.divsi %0, %c128_i32 : i32
    return %1 : i32
  }
  func @"minimum__i32__1cconstexpr[8]"(%arg0: i32) -> i32 {
    %c8_i32 = arith.constant 8 : i32
    %0 = arith.cmpi slt, %arg0, %c8_i32 : i32
    %1 = select %0, %arg0, %c8_i32 : i32
    return %1 : i32
  }
}
